Packages/jp.torinos.mediapipe.holistic/Model/hand_recrop.onnx (onnx, 123599 bytes, 79 tensors)

conv2d_4/Bias f4 [32]
0	0x00000000	0.0
1	0x00000000	0.0
2	0x00000000	0.0
3	0x00000000	0.0
4	0x00000000	0.0
5	0x00000000	0.0
6	0x00000000	0.0
7	0x00000000	0.0
8	0x00000000	0.0
9	0x00000000	0.0
10	0x00000000	0.0
11	0x00000000	0.0
12	0x00000000	0.0
13	0x00000000	0.0
14	0x00000000	0.0
15	0x00000000	0.0
16	0x00000000	0.0
17	0x00000000	0.0
18	0x00000000	0.0
19	0x00000000	0.0
20	0x00000000	0.0
21	0x00000000	0.0
22	0x00000000	0.0
23	0x00000000	0.0
24	0x00000000	0.0
25	0x00000000	0.0
26	0x00000000	0.0
27	0x00000000	0.0
28	0x00000000	0.0
29	0x00000000	0.0
30	0x00000000	0.0
31	0x00000000	0.0

batch_normalization_2/Kernel f4 [8, 1, 1, 1]
0	0x3f625485	0.88410217
1	0x3f72db76	0.9486612
2	0x3ee38ac3	0.44441804
3	0x3f85ee97	1.0463437
4	0x3f2264ed	0.6343525
5	0x3f97640a	1.1827404
6	0x3f22e46d	0.636298
7	0x3e88082b	0.26568732

batch_normalization_10/Kernel f4 [16, 1, 1, 1]
0	0x3f10c3b0	0.56548595
1	0x3f0caec4	0.5495417
2	0x3efc833d	0.49318877
3	0x3eed77e7	0.4638054
4	0x3f415436	0.7551912
5	0x3f0772ef	0.5290975
6	0x3f10c097	0.5654387
7	0x3f4293c1	0.76006705
8	0x3efc2deb	0.49253783
9	0x3f072c99	0.52802426
10	0x3ee4d272	0.44691807
11	0x3f0ac3bb	0.5420491
12	0x3efcf02b	0.49401984
13	0x3eca41dd	0.39503375
14	0x3eb6de59	0.35716513
15	0x3f0ecbf0	0.55779934

p_re_lu_7/Alpha f4 [1, 64, 1, 1]
0	0xbf371d24	-0.7152884
1	0x3e689270	0.22712111
2	0x3d2e1d59	0.042508457
3	0xbda543eb	-0.08069595
4	0xbeb24493	-0.34817943
5	0xbc6703b8	-0.014100008
6	0xbeae0024	-0.33984482
7	0xbe45e79f	-0.19326638
8	0xbe8995ee	-0.268722
9	0x3f41884b	0.7559859
10	0x3f159236	0.58426225
11	0xbe281dbb	-0.16417591
12	0x3e2876e2	0.164516
13	0xbdce4241	-0.10071231
14	0x3e1f124b	0.15534322
15	0xbc0e8ee9	-0.008701065
16	0x3da24e21	0.07925058
17	0xbd6a811a	-0.057252027
18	0xbe997e33	-0.29979095
19	0xbd83ce77	-0.064358644
20	0x3d22b2c6	0.039721273
21	0xbeefd5cc	-0.46842802
22	0xbd37dd78	-0.044888943
23	0xbed7f43d	-0.42178527
24	0x3ccb09ba	0.024784911
25	0xbc546f4f	-0.012965991
26	0xbd89c41b	-0.06726857
27	0x3da7b264	0.08188322
28	0xbcfafa1c	-0.03063684
29	0x3d43ff7f	0.047851082
30	0xbe393e10	-0.18090081
31	0xbd1724e9	-0.036900435
32	0xbe80ebb2	-0.2517982
33	0xbecc36ba	-0.39885503
34	0xbcb60041	-0.022216918
35	0xbde4a91b	-0.11165067
36	0xbe6328dd	-0.22183557
37	0xbdc12b1d	-0.09432051
38	0xbdb0ee5d	-0.08639214
39	0xbe8bb539	-0.272867
40	0x3cb59604	0.02216626
41	0xbca5eb90	-0.020253927
42	0xbe19d6da	-0.15023366
43	0xbdeab708	-0.11460692
44	0xbe305de7	-0.17223321
45	0xbeda7ebe	-0.42674822
46	0xbe64466e	-0.22292492
47	0xbc7fe1f4	-0.015617836
48	0xbe05125d	-0.12995286
49	0xbe837115	-0.25672212
50	0xbea6025f	-0.32423684
51	0xbe043d87	-0.12914096
52	0xbe5fa451	-0.21840025
53	0xbdec3461	-0.11533428
54	0xbe476859	-0.19473399
55	0xbe75d054	-0.24005252
56	0xbdfc5a77	-0.12321942
57	0xbf1f19aa	-0.62148535
58	0xbe44847a	-0.19191161
59	0xbd842d42	-0.06453945
60	0xbdb7b9f1	-0.089710124
61	0xbd721a96	-0.059107386
62	0xbe855196	-0.26038808
63	0x3dbd65a3	0.09247901

batch_normalization_10/Bias f4 [16]
0	0xbfcda8ef	-1.606718
1	0xbfde55f5	-1.7369982
2	0xc043315a	-3.0498872
3	0xc0227b56	-2.5387778
4	0x3f4ad285	0.7922748
5	0xbe5ca5a2	-0.21547559
6	0xbf8fc612	-1.1232321
7	0xbf4c6877	-0.798469
8	0xbf8094ba	-1.0045388
9	0xbf8307e8	-1.0236788
10	0xbea0791f	-0.31342408
11	0xbf5d40fc	-0.86427283
12	0xbf99ef95	-1.202624
13	0xbff68a5e	-1.9260976
14	0x3f527298	0.82206106
15	0xc06b2f1f	-3.674751

depthwise_conv2d_1/Kernel f4 [16, 1, 3, 3]
0	0xbd02c791	-0.031928603
1	0xbd4d2842	-0.05008722
2	0x3d322074	0.04348798
3	0xbd853118	-0.065035045
4	0xbe194276	-0.14966759
5	0x3e4364a5	0.19081362
6	0xbe2f2a8c	-0.17106074
7	0xbd89cddc	-0.06728718
8	0x3e962d0e	0.2933125
9	0xbd436d06	-0.047711395
10	0xbe0111f3	-0.12604503
11	0x3e91e4fc	0.28495014
12	0xbd2f4284	-0.042788044
13	0xbdc5c97c	-0.09657571
14	0x3e5d2ede	0.2159991
15	0xbd213c52	-0.039364167
16	0xbd90b4c8	-0.07065731
17	0xbd9c0c0d	-0.07619486
18	0x3cafe4c1	0.021471383
19	0x3dca62d8	0.09882134
20	0xbe539ddb	-0.20665686
21	0x3e0d3260	0.13788748
22	0xbe44ff4f	-0.19238017
23	0xbe17146e	-0.14753887
24	0x3ce02486	0.027361166
25	0x3d89aee8	0.06722814
26	0x3e3b2312	0.18275097
27	0x3c555d58	0.013022743
28	0xbd523e9f	-0.05132925
29	0x3c205368	0.009785511
30	0xbe00ae58	-0.12566507
31	0xbea75e60	-0.3268919
32	0xbdb31195	-0.08743588
33	0xbe5b7a57	-0.21433388
34	0xbcfaeeb6	-0.030631404
35	0x3d8afef0	0.06786907
36	0x3de1b774	0.11021319
37	0x3dc0780c	0.09397897
38	0x3de936e3	0.11387422
39	0x3d045916	0.03231152
40	0x3e4b39bc	0.19846243
41	0xbb8b8e3b	-0.0042588986
42	0xbdfe22f0	-0.124090075
43	0xbeb77c31	-0.35836938
44	0xbe19652d	-0.14980002
45	0x3e78ed27	0.24309216
46	0x3ecc3e1e	0.39891142
47	0xbd2c84f4	-0.04211898
48	0x3e0619e9	0.13095821
49	0x3e1f1889	0.15536703
50	0xbe9c4bc8	-0.30526567
51	0xbd304cd6	-0.043042026
52	0xbea8b5f2	-0.32951313
53	0xbe47cda1	-0.19512035
54	0xbc0727c4	-0.008249227
55	0xbdc1cac5	-0.09462503
56	0xbe3367dc	-0.17520088
57	0xbd19f11d	-0.03758346
58	0xbe69dcce	-0.22838137
59	0xbe81c4dc	-0.25345504
60	0xbdb8ea88	-0.09029108
61	0xbdeba979	-0.11506934
62	0xbe327808	-0.17428601
63	0xbe029109	-0.12750639
64	0xbe43f87b	-0.19137757
65	0xbd5d17d4	-0.053977802
66	0x3d6f16f5	0.058371503
67	0x3e90bfbb	0.2827128
68	0x3e1bf70c	0.1523096
69	0x3e14250b	0.14467256
70	0x3e120a60	0.1426177
71	0xbe8aa072	-0.27075535
72	0xbe087d97	-0.13329159
73	0x3cc0ef18	0.023551509
74	0xbd9607a1	-0.07325674
75	0x3f2473da	0.64239275
76	0x3efd3dc9	0.494612
77	0x3f14a5ef	0.58065695
78	0xbed8ca05	-0.4234163
79	0xbe4a63eb	-0.19764678
80	0xbda29d47	-0.079401545
81	0xbe2b5a56	-0.16733679
82	0xbd578aef	-0.05262273
83	0xbcb85b29	-0.022504406
84	0xbdc2a2f0	-0.09503734
85	0xbb6b3f48	-0.0035895873
86	0x3dde8a5f	0.10866236
87	0xbead3751	-0.33831266
88	0xbebd209b	-0.36938938
89	0xbe7b6da1	-0.24553539
90	0xbe673936	-0.22580418
91	0xbe6cb79b	-0.23116915
92	0xbea20591	-0.31644872
93	0x3e0ff42c	0.14057988
94	0x3e8a9b1b	0.2707146
95	0x3cc9282a	0.024555285
96	0xbe082bba	-0.1329793
97	0x3cfe8e87	0.031073822
98	0x3e6fa453	0.23402528
99	0xbcf32bd1	-0.02968398
100	0x3e7ee31f	0.24891327
101	0x3eea1bbe	0.4572429
102	0xbe9b070d	-0.30278817
103	0x3d170eec	0.036879465
104	0x3e6e1931	0.23251797
105	0xbe8cda7c	-0.2751044
106	0xbed03b09	-0.4067004
107	0x3d7d2aab	0.06180827
108	0x3e287474	0.16450673
109	0xbdccad26	-0.09993963
110	0x3da29297	0.07938116
111	0x3e2b1b44	0.1670962
112	0xbe907043	-0.2821065
113	0x3e53f3bd	0.20698448
114	0xbeb91985	-0.36152282
115	0xbe05966b	-0.13045661
116	0xbe9561ff	-0.29176328
117	0x3c67602f	0.014122053
118	0xbddaf014	-0.106903225
119	0x3e61c75e	0.22048709
120	0x3dd9e85c	0.10640022
121	0xbddf35c1	-0.108989246
122	0x3e77eb16	0.24210772
123	0x3cc7709f	0.024345694
124	0x3e281cf1	0.1641729
125	0x3e70125c	0.23444504
126	0x3eae16ef	0.34001872
127	0x3e572f1f	0.21014069
128	0xbd8580b6	-0.0651869
129	0xbe322c17	-0.17399631
130	0xbe859a87	-0.26094458
131	0xbea26dc4	-0.3172437
132	0xbdfaf91e	-0.122545466
133	0xbe90c4ea	-0.28275234
134	0xbe6a24e2	-0.22865632
135	0x3dbff5b9	0.0937304
136	0x3e1d1626	0.1534048
137	0x3dcb251d	0.09919188
138	0x3e6239b1	0.2209232
139	0xbe16353e	-0.14668748
140	0xbea3eac8	-0.3201506
141	0x3e6ff300	0.23432541
142	0xbce23b54	-0.02761618
143	0xbeb312d4	-0.34975302

conv2d_1/Kernel f4 [8, 8, 2, 2]
0	0x3e92c146	0.2866308
1	0x3da70aea	0.081563786
2	0xbe1536b1	-0.14571644
3	0x3ebe7a8e	0.37202877
4	0xbe8a0584	-0.26957333
5	0xbd98dd61	-0.074641
6	0xbdd9d3f1	-0.10636128
7	0x3d65b97a	0.056085087
8	0x3e5589e0	0.20853376
9	0x3e039d0f	0.12852882
10	0xbe4cd836	-0.20004353
11	0xbe4bdc4f	-0.1990826
12	0xbed41f34	-0.41430056
13	0x3ea31f89	0.31859997
14	0x3e2f855b	0.17140715
15	0xbd5c0f55	-0.05372556
16	0xba34528e	-0.00068787567
17	0x3e071178	0.13190258
18	0x3d4e1635	0.050314147
19	0x3d097f94	0.033568934
20	0x3e898f9f	0.26867387
21	0x3ed53e05	0.4164888
22	0xbe85cb47	-0.2613165
23	0xbef9b631	-0.48771814
24	0xbe0ac10c	-0.13550204
25	0xbdfaa6a4	-0.122388154
26	0xbcf4a05f	-0.029861627
27	0x3de8d43e	0.11368607
28	0x3e5a163d	0.21297546
29	0xbc8ff024	-0.017570563
30	0xbd1d0244	-0.03833224
31	0xbe19e7cc	-0.1502983
32	0xbda719b1	-0.08159197
33	0xbdc746d1	-0.09730304
34	0xbe1c19f4	-0.15244275
35	0x3e8c3f77	0.2739217
36	0x3c8336d9	0.016017364
37	0xbdc99b0f	-0.09844028
38	0x3e582607	0.21108256
39	0x3e612b88	0.21989262
40	0xbd9d8107	-0.07690626
41	0xbe141ffa	-0.14465323
42	0xbea91870	-0.33026457
43	0xbccc3a7b	-0.02493023
44	0xbeeaf801	-0.45892337
45	0xbed6af1e	-0.4193048
46	0xbe27f532	-0.16402128
47	0xbea103e9	-0.31448296
48	0xbdea932c	-0.11453852
49	0xbe4b37cb	-0.19845502
50	0xbbe0c7ca	-0.006859754
51	0xbde67579	-0.11252875
52	0xbd036a60	-0.03208387
53	0x3c9d3a90	0.019192964
54	0x3dbce3e2	0.09223153
55	0x3de4c024	0.111694604
56	0xbeb35213	-0.35023555
57	0xbe3a69ef	-0.18204473
58	0xbed0f8c1	-0.40814784
59	0x3cfa8bd2	0.03058425
60	0xbde9dca1	-0.11419035
61	0x3ec7fb47	0.39058897
62	0xbe612c54	-0.21989566
63	0x3e63d241	0.22248174
64	0x3cb7709a	0.02239256
65	0xbc010fe5	-0.007877325
66	0xbe081027	-0.13287412
67	0x3e960db1	0.2930732
68	0x3edc1d5d	0.42991152
69	0x3d6adee5	0.057341475
70	0xbdb363c1	-0.08759261
71	0x3eacdbf3	0.33761558
72	0xbed41a9c	-0.4142655
73	0xbe9ded4d	-0.3084511
74	0xbf050c6d	-0.51972085
75	0xbecb1596	-0.39664906
76	0xbe003c81	-0.1252308
77	0x3dea258e	0.11432944
78	0x3e0ed954	0.13950092
79	0x3e42620b	0.18982713
80	0x3e33da5e	0.17563769
81	0x3e9eaf86	0.3099329
82	0x3a637ea3	0.0008678233
83	0xbce6cb02	-0.028172974
84	0xbcafb993	-0.021450793
85	0x3d81e369	0.06342203
86	0xbdaad7e5	-0.0834196
87	0x3d15c73a	0.03656695
88	0xbdd85384	-0.10562804
89	0x3e5b594d	0.21420784
90	0x3e748c37	0.23881613
91	0xbdad2eed	-0.08456216
92	0xbe625df7	-0.22106157
93	0x3d45df6c	0.048308775
94	0xbe5feac6	-0.21866903
95	0xbc155d1b	-0.009116436
96	0xbdf9d4e5	-0.121988095
97	0x3e6f92a6	0.23395786
98	0xbe7eb96f	-0.24875425
99	0x3e396e97	0.18108593
100	0xbe2839d9	-0.16428317
101	0xbe6e8228	-0.23291838
102	0x3dab2ccd	0.083581544
103	0x3dd5e5bb	0.10444208
104	0xbe4d95d9	-0.20076694
105	0xbe5bb0b2	-0.21454123
106	0x3d12cd16	0.035840116
107	0xbe55e7b0	-0.20889163
108	0xbcc1c91e	-0.02365547
109	0x3e02500a	0.12725845
110	0xbb9ba7b0	-0.0047502145
111	0x3e8af3d2	0.27139145
112	0x3d8eebf4	0.06978598
113	0xbea5f2f2	-0.32411915
114	0x3de8b190	0.11361992
115	0xbed8619d	-0.42261973
116	0xbd506112	-0.050873823
117	0x3e46a1b1	0.19397618
118	0x3dc23855	0.09483401
119	0x3ec14e05	0.37754837
120	0x3de8b38d	0.113623716
121	0x3ee542d7	0.44777557
122	0xbc852d8c	-0.01625707
123	0x3eb3a936	0.35090035
124	0x3dec8ac4	0.11549905
125	0x3d679dde	0.05654704
126	0xbcbb62db	-0.022874286
127	0x3ddd9792	0.10819925
128	0xbf223f8b	-0.6337821
129	0xbf345fb0	-0.7045851
130	0xbf3d9ac6	-0.7406429
131	0xbea52d77	-0.3226125
132	0xbd6000eb	-0.054688375
133	0x3d421a87	0.04738858
134	0x3e906461	0.28201583
135	0xbd146dae	-0.03623741
136	0xbd43f9e4	-0.047845736
137	0x3e4c60a9	0.19958748
138	0xbd4a20c7	-0.049347665
139	0x3c8a0dbc	0.016852252
140	0x3e1629a4	0.14664322
141	0xbe410043	-0.18847756
142	0x3d698b79	0.057017777
143	0xbe3686e5	-0.17824896
144	0x3b80f198	0.00393505
145	0x3e441ab9	0.19150819
146	0xbdf2b144	-0.11850217
147	0x3d2e6800	0.04257965
148	0x3e936927	0.28791162
149	0x3ee86d12	0.45395714
150	0x3eaffabf	0.34370992
151	0x3f074dac	0.5285289
152	0xbd623dcb	-0.05523471
153	0xbe94bdbf	-0.29051015
154	0xbea6fba7	-0.3261387
155	0xbdb6970a	-0.08915527
156	0xbe4ab56e	-0.19795772
157	0x3e274247	0.16333877
158	0xbe2a91a4	-0.1665712
159	0x3d206397	0.039157476
160	0xbebab12a	-0.3646329
161	0xbdec9756	-0.115523025
162	0x3ea8dcb0	0.3298087
163	0x3ddc7905	0.1076527
164	0xbe4b140c	-0.19831866
165	0xbeee755a	-0.46573907
166	0xbea7f0a8	-0.32800794
167	0xbe910bf7	-0.2832944
168	0x3d63101b	0.05543528
169	0xbca88806	-0.020572674
170	0xbd269690	-0.04067093
171	0xbd6d7332	-0.057971187
172	0xbe27c4a0	-0.163836
173	0x3dd78a16	0.10524385
174	0x3dbb58bd	0.09147785
175	0x3e763a09	0.24045576
176	0x3eaf0938	0.3418672
177	0x3e54c385	0.2077771
178	0x3e9b4bbc	0.30331218
179	0x3df8f8ce	0.12156831
180	0xbc94a301	-0.018144133
181	0xbd1ae6e3	-0.037817847
182	0xbd952aa5	-0.072835244
183	0xbd48b268	-0.048998266
184	0xbe80ec0d	-0.25180092
185	0xbda90caf	-0.08254372
186	0x3e1b18a4	0.15146118
187	0xbe328bc3	-0.17436127
188	0x3dd524e1	0.10407425
189	0xbb88d4f1	-0.004175775
190	0x3d8b133a	0.067907766
191	0xbd778d9a	-0.060437776
192	0xbc97ef97	-0.018546863
193	0xbd0c1e00	-0.034208298
194	0x3e80dd9b	0.25169072
195	0x3da6abbd	0.08138225
196	0xbd6e96f3	-0.058249425
197	0xbbbbd6c7	-0.0057323906
198	0xbe692075	-0.22766288
199	0xbe828a26	-0.25496024
200	0xbdb13079	-0.086518236
201	0xbe3c6682	-0.18398479
202	0x3dccd4dc	0.10001537
203	0x3ea7a9f5	0.32746854
204	0xbe2c15a2	-0.16805127
205	0xbea42f01	-0.3206711
206	0x3e0ee8ad	0.13955946
207	0x3eade706	0.3396532
208	0xbd588e23	-0.052869927
209	0x3e076f78	0.13226116
210	0x3e3ebc5c	0.18626541
211	0x3e1352a5	0.14386995
212	0x3f15f8fb	0.5858304
213	0x3f09edca	0.5387846
214	0x3effcff9	0.49963358
215	0x3f019cc0	0.50629807
216	0xbd66053d	-0.05615734
217	0x3e205985	0.15659149
218	0xbe532752	-0.20620468
219	0x3e4c3f79	0.19946088
220	0x3e9c7aba	0.30562383
221	0x3e9056f0	0.28191328
222	0xbe3ec638	-0.18630302
223	0x3df7e126	0.121034905
224	0xbe52748e	-0.20552275
225	0x36f2ad90	7.2323674e-06
226	0x3d64bab5	0.05584212
227	0x3e23d9ce	0.16001055
228	0x3d8def7f	0.06930446
229	0x3d64d833	0.055870246
230	0xbd025cc5	-0.031826753
231	0xbd4082d4	-0.046999767
232	0xbd564075	-0.052307565
233	0x3d818572	0.06324281
234	0x3b7979e2	0.0038067033
235	0x3b8d0527	0.0043035927
236	0xbecb6d16	-0.39731663
237	0xbe6f27c6	-0.23355016
238	0xbed41031	-0.41418603
239	0xbf03ae1d	-0.5143755
240	0x3dbfe8ee	0.093706
241	0x3d25fac4	0.04052235
242	0x3e02ca08	0.12772381
243	0x3ea5e31a	0.32399827
244	0x3d1e86fc	0.03870295
245	0xbe26ea0a	-0.16300216
246	0xbe09a6b4	-0.13442498
247	0xbec0f2bc	-0.37685192
248	0x3e7d7ba6	0.247542
249	0x3ea21965	0.3166
250	0x3e8fd192	0.28089577
251	0x3ea5f7ad	0.32415524
252	0x3ea50809	0.32232693
253	0x3e8db486	0.2767679
254	0x3e810efb	0.25206742
255	0x3e474c18	0.19462621

p_re_lu_11/Alpha f4 [1, 32, 1, 1]
0	0xbe5dfdaa	-0.21678796
1	0x3f2b1225	0.6682456
2	0x3e9e0c0a	0.3086856
3	0x3f0ee149	0.5581251
4	0xbed51382	-0.41616446
5	0x3e3007d6	0.17190489
6	0xbdb9be8b	-0.09069546
7	0x3ea35771	0.3190265
8	0x3e050f94	0.12994224
9	0xbf385a45	-0.7201274
10	0xbf05dd41	-0.5229073
11	0xbf6ba281	-0.92044836
12	0xbf9d5ddb	-1.2294267
13	0xbe9b0d37	-0.3028352
14	0x3f0c0fd6	0.54711664
15	0x3bcfea95	0.006345103
16	0xbea7074e	-0.3262276
17	0xbe0561ef	-0.1302564
18	0xbedc0e6b	-0.4297975
19	0xbe4b0181	-0.19824792
20	0xbe06b131	-0.1315353
21	0x3da6c3b5	0.08142797
22	0xbedfc284	-0.4370309
23	0xbdec73fc	-0.1154556
24	0xbe5ed107	-0.21759425
25	0x3fa7d85d	1.3112904
26	0xbc0b3c33	-0.008498239
27	0xbdd5f5d6	-0.1044728
28	0xbc1278fb	-0.008939977
29	0xbdec8c4f	-0.11550199
30	0xbef3ab4b	-0.47591624
31	0xbe99250d	-0.2991108

depthwise_conv2d_1/Bias f4 [16]
0	0x00000000	0.0
1	0x00000000	0.0
2	0x00000000	0.0
3	0x00000000	0.0
4	0x00000000	0.0
5	0x00000000	0.0
6	0x00000000	0.0
7	0x00000000	0.0
8	0x00000000	0.0
9	0x00000000	0.0
10	0x00000000	0.0
11	0x00000000	0.0
12	0x00000000	0.0
13	0x00000000	0.0
14	0x00000000	0.0
15	0x00000000	0.0

conv2d_1/Bias f4 [8]
0	0x00000000	0.0
1	0x00000000	0.0
2	0x00000000	0.0
3	0x00000000	0.0
4	0x00000000	0.0
5	0x00000000	0.0
6	0x00000000	0.0
7	0x00000000	0.0

conv2d_12/Kernel f4 [16, 8, 1, 1]
0	0x3f8bd144	1.0923238
1	0xbf1fa865	-0.62366325
2	0x3f09992f	0.53749365
3	0xbe93798e	-0.28803676
4	0xbf72acde	-0.94795024
5	0xbf5d4e69	-0.8644777
6	0xbed30ee8	-0.4122231
7	0x3dd819f8	0.10551828
8	0x3f82f9cd	1.0232483
9	0xbe6b6103	-0.22986226
10	0x3ef4e984	0.47834408
11	0xbf0dc131	-0.5537291
12	0x3f36639f	0.7124576
13	0x3f32ec50	0.69891834
14	0xbec0709f	-0.37585923
15	0xbef6d141	-0.48206523
16	0x3f583c75	0.8446725
17	0x3f05550d	0.520829
18	0x3eaa67ca	0.3328231
19	0x3f5f52a9	0.87235504
20	0xbf633393	-0.8875057
21	0xbe78b889	-0.24289145
22	0x3f6faa4c	0.9361923
23	0x3f7853ab	0.9700267
24	0xbdfb494f	-0.12269842
25	0xbf3cc8ef	-0.737441
26	0x3f197191	0.59938914
27	0xbed03353	-0.40664157
28	0x3f2f976e	0.6859044
29	0xbf067d6d	-0.52535135
30	0x3f1e0275	0.617225
31	0x3f4797ba	0.7796589
32	0x3e87f0ed	0.26551
33	0x3ed0dc91	0.4079328
34	0x3f0fff34	0.56248784
35	0x3f1837c7	0.5946011
36	0xbf6a4305	-0.91508514
37	0xbf535c74	-0.8256295
38	0x3eaac99f	0.3335695
39	0x3ddec2ff	0.10877036
40	0x3f4db6ca	0.8035704
41	0x3f249f26	0.6430534
42	0x3f76ee1b	0.9645707
43	0x3f7afaf2	0.9803916
44	0xbf9c1ae2	-1.2195704
45	0x3d6f3142	0.058396585
46	0x3f4b53de	0.79424846
47	0x3fad70a9	1.3550006
48	0x3f752b13	0.9576885
49	0x3d4a472e	0.04938429
50	0x3f8ce3bf	1.1007003
51	0x3e67b983	0.22629361
52	0xbeb603c6	-0.35549754
53	0x3e296341	0.16541769
54	0x3f3f1099	0.746347
55	0x3f48c10d	0.7841957
56	0x3ee97456	0.4559657
57	0xbfa4112a	-1.2817738
58	0xbeaceda4	-0.33775055
59	0xbf827991	-1.0193349
60	0x3f4cc31c	0.79985213
61	0xbe58bef9	-0.211666
62	0xbec0c044	-0.37646687
63	0xbdf9653a	-0.121775106
64	0x3d031f92	0.03201253
65	0x3f873274	1.0562272
66	0x3f1486b3	0.58018035
67	0xbf1d6310	-0.6147928
68	0xbf31d9d9	-0.69473034
69	0xbf55cb09	-0.8351293
70	0x3f21260b	0.62948674
71	0xbe192ff5	-0.149597
72	0xbf6ce496	-0.92536294
73	0xbf722213	-0.94583243
74	0xbee13483	-0.43985376
75	0x3f814b90	1.0101185
76	0x3f10d8c2	0.56580746
77	0x3ecdf9fe	0.4022979
78	0xbdda4107	-0.10656934
79	0xbf27f786	-0.65612066
80	0x3f8cf9f4	1.101378
81	0xbf3a928f	-0.7287988
82	0xbf7b9ea0	-0.9828892
83	0xbf931d57	-1.1493329
84	0xbeb53758	-0.35393786
85	0x3f5dc077	0.86621803
86	0xbf072a53	-0.52798957
87	0xbe723583	-0.23653226
88	0x3f9e47f4	1.2365708
89	0xbef4abf9	-0.47787455
90	0x3f1c1539	0.60969883
91	0x3d3248f0	0.04352659
92	0xbd4fcb7c	-0.050731167
93	0xbf80d06a	-1.0063603
94	0x3dfacbc4	0.122458965
95	0x3e3e60b6	0.1859158
96	0x3f09c8dc	0.5382211
97	0xbe8cae0a	-0.2747653
98	0x3f3847e8	0.7198472
99	0x3f4c7588	0.7986684
100	0x3e981aa5	0.29707828
101	0xbf40a56f	-0.7525243
102	0x3fb75c9b	1.4325136
103	0x3ebc0fc5	0.3673078
104	0xbf410dbf	-0.754116
105	0x3f071daa	0.5277964
106	0x3f0197eb	0.50622433
107	0x3f38631c	0.7202623
108	0x3ea173ef	0.31533763
109	0xbf377ece	-0.71677864
110	0x3fb9bbd1	1.4510442
111	0xbf5c3fe2	-0.8603498
112	0x3eb85b73	0.3600727
113	0xbebbe91d	-0.3670129
114	0xbe0e88b7	-0.1391934
115	0x3f933bfd	1.1502682
116	0x3ec82cd7	0.3909671
117	0x3f447d5b	0.7675378
118	0x3dccba88	0.099965155
119	0xbebace68	-0.364856
120	0xbf187648	-0.5955548
121	0xbf9f3999	-1.2439452
122	0xbf827606	-1.0192268
123	0xbf485079	-0.7824779
124	0x3e869b9b	0.26290593
125	0x3f70d0ae	0.9406842
126	0xbefb586d	-0.490909
127	0xbd875fd7	-0.06610077

p_re_lu_5/Alpha f4 [1, 32, 1, 1]
0	0xbe885b42	-0.26632124
1	0x3ed8385e	0.42230505
2	0xbf41e2f3	-0.7573692
3	0x3e2b506e	0.167299
4	0xbd01f606	-0.031728767
5	0xbd5c5d8c	-0.05380015
6	0x3f58d87c	0.8470533
7	0xbeb4b5c4	-0.35294926
8	0xbd3650dc	-0.044510707
9	0x3e340104	0.17578512
10	0xbe6434cd	-0.22285767
11	0xbdb85910	-0.09001362
12	0xbe8453c0	-0.25845146
13	0xbce91741	-0.028453471
14	0xbe2d267e	-0.16909215
15	0xbd2be46b	-0.041965883
16	0x3dfc9e72	0.123349085
17	0xbe032f56	-0.12811026
18	0xbd9c4d4a	-0.07631929
19	0xbd5c1460	-0.05373037
20	0xbdb69cfa	-0.0891666
21	0xbeaec4b7	-0.34134457
22	0xbe4b2bc4	-0.19840914
23	0xbe2a7e46	-0.16649732
24	0xbe4540b5	-0.19262965
25	0xbb57ad6e	-0.0032909769
26	0xbcb8c6fd	-0.022555823
27	0xb9d38dd9	-0.0004035074
28	0x3da9f064	0.08297804
29	0xbeca429a	-0.39503938
30	0xbec138dc	-0.37738693
31	0xbdb4a6e9	-0.08820898

batch_normalization_7/Kernel f4 [64, 1, 1, 1]
0	0x3f3128a8	0.6920266
1	0x3e9931be	0.29920763
2	0x3ef80505	0.4844133
3	0x3f11aa13	0.5690014
4	0x3e6aaaf0	0.2291677
5	0x3efefbe6	0.49801558
6	0x3e1c42e9	0.15259899
7	0x3e4d5a40	0.20053959
8	0x3fb57174	1.4175248
9	0x3eae71b7	0.34071133
10	0x3f68fef7	0.91014045
11	0x3e9add9c	0.302472
12	0x3e827a88	0.2548411
13	0x3fdb6738	1.7140875
14	0x3e875ea7	0.26439402
15	0x400294dd	2.040336
16	0x3fe0a043	1.7548908
17	0x409fa7f8	4.989254
18	0x3fcbc614	1.5919824
19	0x402cf8be	2.702682
20	0x40925746	4.5731535
21	0x3fb6994b	1.4265531
22	0x400f5d39	2.2400649
23	0x3fb8fabc	1.4451518
24	0x4031b101	2.7764285
25	0x3ff3eb01	1.9056093
26	0x3fef085d	1.8674427
27	0x400a3a61	2.1598132
28	0x3fcf961e	1.6217687
29	0x4017adf4	2.3699923
30	0x400a1b02	2.1578984
31	0x405baf89	3.4325888
32	0x408a613b	4.324369
33	0x40376e3f	2.866104
34	0x402c97d6	2.6967673
35	0x40755a07	3.8336198
36	0x40803d25	4.007464
37	0x4067144f	3.6106145
38	0x40a929d8	5.286358
39	0x40468417	3.1018121
40	0x3ff84fe8	1.9399385
41	0x40aae89a	5.3408937
42	0x405c4b97	3.4421136
43	0x408e2e86	4.443179
44	0x40327026	2.788095
45	0x405c45cc	3.44176
46	0x4030c3f3	2.7619598
47	0x4083bab9	4.1165433
48	0x4045f2c1	3.0929415
49	0x407f1566	3.985681
50	0x400716c3	2.1107643
51	0x403174b2	2.7727475
52	0x40b34697	5.602367
53	0x40b0f8be	5.530364
54	0x40ad52a1	5.4163365
55	0x4037a794	2.8696032
56	0x408af85d	4.342818
57	0x4018d372	2.3879056
58	0x406bc8ce	3.6841311
59	0x406ac570	3.6683006
60	0x4096c558	4.71159
61	0x4085b4b1	4.178307
62	0x4042ffbb	3.0468585
63	0x40cced1c	6.403944

conv2d_12/Bias f4 [16]
0	0x00000000	0.0
1	0x00000000	0.0
2	0x00000000	0.0
3	0x00000000	0.0
4	0x00000000	0.0
5	0x00000000	0.0
6	0x00000000	0.0
7	0x00000000	0.0
8	0x00000000	0.0
9	0x00000000	0.0
10	0x00000000	0.0
11	0x00000000	0.0
12	0x00000000	0.0
13	0x00000000	0.0
14	0x00000000	0.0
15	0x00000000	0.0

depthwise_conv2d/Kernel f4 [8, 1, 3, 3]
0	0xbd226bfd	-0.039653767
1	0xbdf68c51	-0.12038482
2	0xbbcf1f71	-0.006320887
3	0xbe011f9c	-0.12609714
4	0xbcd0e095	-0.025497714
5	0xbdaff556	-0.08591716
6	0xbdbc2510	-0.091867566
7	0xbe950db3	-0.29112014
8	0xbe81b50e	-0.25333446
9	0xbdebadae	-0.11507736
10	0xbe37ee10	-0.17961907
11	0x3c3b35bf	0.011426388
12	0xbdc7453c	-0.09730002
13	0x3e15e791	0.14639117
14	0xbd8352a2	-0.06412245
15	0xbdbd6ac2	-0.09248878
16	0x3d931411	0.07181562
17	0xbe8f83ec	-0.28030336
18	0xbe25f1d8	-0.16205537
19	0xbdabf9e9	-0.08397276
20	0x3d7d5cc5	0.06185605
21	0x3dd08f1f	0.10183548
22	0x3ecb1792	0.3966642
23	0x3df3394b	0.11876162
24	0xbd172bdd	-0.036907066
25	0x3ec4683d	0.38360777
26	0x3dd1962b	0.102337204
27	0x3de95f51	0.11395133
28	0xbde45910	-0.111498
29	0x3e4bf635	0.1991814
30	0xbda10647	-0.078625254
31	0xbe1e0040	-0.15429783
32	0x3e315840	0.17318821
33	0xbe8c51d8	-0.27406192
34	0xbed3b1da	-0.41346627
35	0xbdfe662c	-0.124218315
36	0x3c841261	0.016122045
37	0x3e09c22c	0.13452977
38	0xbec869a0	-0.39143085
39	0x3ce98338	0.028504953
40	0x3eca3c93	0.3949934
41	0xbe2ec7fd	-0.17068477
42	0xbee10e09	-0.4395602
43	0x3e87262d	0.26396313
44	0x3e575572	0.21028689
45	0x3d3bfc91	0.045895163
46	0x3e12c288	0.1433202
47	0xbd27f52d	-0.041005302
48	0x3ec4c621	0.3843241
49	0x3da29088	0.079377234
50	0xbe18ac9b	-0.14909594
51	0x3e308a93	0.17240362
52	0xbefa6267	-0.489032
53	0xbeb2608f	-0.34839293
54	0x3de75540	0.11295557
55	0x3d5520e2	0.052033313
56	0x3d444b3f	0.047923323
57	0x3e828160	0.2548933
58	0x3e353291	0.17695071
59	0x3debe44e	0.11518155
60	0x3e204922	0.15652898
61	0x3e0aa8d4	0.13540965
62	0xbd3296a9	-0.043600712
63	0x3d980f1b	0.07424756
64	0xbda841ce	-0.08215676
65	0x3ea3e8d1	0.32013562
66	0x3e34d1b7	0.17658125
67	0xbd6bef1e	-0.057601087
68	0x3eecef59	0.46276358
69	0xbf0f4e43	-0.5597879
70	0xbeb6820e	-0.356461
71	0x3cc479a5	0.023983786

batch_normalization_7/Bias f4 [64]
0	0xbfadbed3	-1.357386
1	0xbf4a4b14	-0.7902081
2	0xbf2c2f6a	-0.6725985
3	0xbf30484a	-0.68860304
4	0xbed23208	-0.41053796
5	0xbfba0850	-1.4533787
6	0xbf3e375a	-0.7430321
7	0xbe047ac6	-0.1293746
8	0xbfac4504	-1.3458562
9	0xbe5961a0	-0.21228647
10	0xbe1a0803	-0.15042119
11	0xbf03bf80	-0.5146408
12	0xbf4aac64	-0.791693
13	0xbf8d916b	-1.1060003
14	0xbf42507c	-0.7590406
15	0xbedf4d8a	-0.43613845
16	0xbfa12f5a	-1.2592576
17	0xbf83e75a	-1.0304978
18	0xbf6495d8	-0.89291143
19	0xbf619b65	-0.8812774
20	0xbeb6eb1b	-0.35726246
21	0xbf0f77fc	-0.56042457
22	0xbef912e7	-0.48647234
23	0xbf125c24	-0.57171845
24	0xbede6c71	-0.4344211
25	0xbfae3ed3	-1.3612922
26	0xbea8fc95	-0.33005205
27	0xbf28d3f0	-0.6594839
28	0xbe8f39cb	-0.2797378
29	0xbf3a5061	-0.727789
30	0xbf677286	-0.90409124
31	0xbf0b7533	-0.54475707
32	0xbf9cbef9	-1.224578
33	0xbfb7e9a9	-1.4368182
34	0xbf34a3ca	-0.7056242
35	0xbf4364fd	-0.7632597
36	0xbf5dfc4d	-0.86713105
37	0xbf33f57b	-0.7029645
38	0xbf85fe87	-1.04683
39	0xbf5bfa38	-0.8592868
40	0xbf87cc6e	-1.0609262
41	0xbe64e9aa	-0.22354761
42	0xbf530a93	-0.8243801
43	0xbed34a91	-0.41267827
44	0xbf0b15e4	-0.5433028
45	0xbf761b59	-0.9613548
46	0xbf36f443	-0.71466464
47	0xbe9e747d	-0.30948249
48	0xbf8e423d	-1.1113964
49	0xbf7701a9	-0.9648691
50	0xbf5ae489	-0.85504967
51	0xbf853800	-1.0407715
52	0xbf8c001a	-1.0937531
53	0xbf54bb4a	-0.8309828
54	0xbf0ea311	-0.5571757
55	0xbf1bb29a	-0.608194
56	0xbf39a515	-0.7251752
57	0xbf5d88f1	-0.8653708
58	0xbf8ce23a	-1.1006539
59	0xbeee25b0	-0.46513128
60	0xbf470a9f	-0.7775058
61	0xbf083469	-0.5320497
62	0xbfa0fbdd	-1.2576863
63	0xbe42ec11	-0.19035365

p_re_lu_2/Alpha f4 [1, 8, 1, 1]
0	0xbf32ddfc	-0.6986997
1	0xbf1a20ad	-0.6020611
2	0x3edf466f	0.43608424
3	0x3e57f501	0.21089555
4	0x3ed4cce7	0.41562578
5	0x3f0e5c34	0.5560944
6	0xbe2ac2fe	-0.16675946
7	0x3f586675	0.8453134

depthwise_conv2d/Bias f4 [8]
0	0x00000000	0.0
1	0x00000000	0.0
2	0x00000000	0.0
3	0x00000000	0.0
4	0x00000000	0.0
5	0x00000000	0.0
6	0x00000000	0.0
7	0x00000000	0.0

batch_normalization_11/Kernel f4 [32, 1, 1, 1]
0	0x3da54157	0.08069103
1	0x3e044c4d	0.12919731
2	0x3e3b17b6	0.18270764
3	0x3e30c007	0.17260753
4	0x3dd5b46f	0.104348056
5	0x3e27b860	0.16378927
6	0x3d66238b	0.05618624
7	0x3dd3885a	0.10328741
8	0x3e2d76d4	0.1693986
9	0x3e1477f1	0.14498879
10	0x3e55a5f9	0.20864095
11	0x3e17b075	0.14813407
12	0x3de61616	0.11234681
13	0x3eb4d97d	0.3532218
14	0x3db006cb	0.08595046
15	0x3e522002	0.20520023
16	0x3ebb26eb	0.3655313
17	0x3ea875ee	0.32902473
18	0x3e86ecec	0.26352632
19	0x3e87068a	0.26372176
20	0x3ec83bf8	0.39108253
21	0x3e3f8f23	0.18706946
22	0x3ea9f3b4	0.33193743
23	0x3e9baf9d	0.3040742
24	0x3e8afaf5	0.2714459
25	0x3e2f2c01	0.1710663
26	0x3ec25422	0.37954813
27	0x3ea0d750	0.3141427
28	0x3ec1e946	0.37873286
29	0x3eafa4e6	0.34305495
30	0x3f04e37e	0.51909626
31	0x3ee11c02	0.4396668

batch_normalization_11/Bias f4 [32]
0	0xbf4beeb7	-0.79661125
1	0xbfdb3c4a	-1.7127774
2	0xbfd9ee92	-1.7025931
3	0xbfbfda8e	-1.4988573
4	0xbf8e6cb2	-1.1126921
5	0xbfd772df	-1.6831931
6	0xbf87275d	-1.0558888
7	0xbf511106	-0.816666
8	0xbf2b0dbb	-0.66817826
9	0xbf6cbc42	-0.9247476
10	0xbf2ee832	-0.6832305
11	0xbfdd2957	-1.7278241
12	0xbf92b642	-1.1461871
13	0xbf902894	-1.1262383
14	0xbf4c7937	-0.7987246
15	0xbec8415d	-0.39112368
16	0xbfe2f305	-1.7730414
17	0xbf521b08	-0.82072496
18	0xbfa482fb	-1.2852472
19	0xbf2fd196	-0.6867918
20	0xbf88e222	-1.069401
21	0xbf620445	-0.88287765
22	0xbfcb9cb9	-1.5907203
23	0xbfcdef39	-1.608863
24	0xbf871028	-1.0551805
25	0xbe8c02c2	-0.27345854
26	0xbfbd5828	-1.4792528
27	0xbf78bd16	-0.9716352
28	0xbf4ab881	-0.7918778
29	0xbfc62c03	-1.5482181
30	0xbfe1460f	-1.7599505
31	0xbf88c447	-1.0684899

depthwise_conv2d_4/Kernel f4 [16, 1, 3, 3]
0	0xbf765cb3	-0.962352
1	0xbec2730e	-0.37978405
2	0xbe8e8599	-0.27836302
3	0xbed48ee6	-0.41515273
4	0x3dbe67e6	0.09297161
5	0xbe88c22d	-0.26710644
6	0xbc0d04e2	-0.008607121
7	0x3d8d5fad	0.06903014
8	0xbeba9951	-0.36445096
9	0xbec0b4b3	-0.37637863
10	0xbf1e2582	-0.6177598
11	0xbd5d8b2f	-0.054087814
12	0xbeed0f73	-0.4630085
13	0xbd75b92a	-0.05999104
14	0x3e633910	0.22189736
15	0xbf2805bc	-0.6563375
16	0xbe96ca41	-0.29451182
17	0xbea42022	-0.32055765
18	0xbf0395b0	-0.5140028
19	0x3eb36353	0.35036716
20	0x3f249e20	0.6430378
21	0xbe6e0e31	-0.23247601
22	0x3eabc6bc	0.3355006
23	0x3ece2233	0.40260467
24	0xbe33919d	-0.17536016
25	0x3f233d63	0.63765544
26	0x3e1097e9	0.14120449
27	0x3e8c01f2	0.27345234
28	0x3e9d9215	0.30775514
29	0x3da2db60	0.07951999
30	0x3f60984f	0.87732404
31	0x3eb2ee2e	0.34947342
32	0x3d15c8b8	0.036568373
33	0x3ebcbfa5	0.36864963
34	0xbefaff5c	-0.4902295
35	0x3f10a50b	0.56501836
36	0xbeb646b9	-0.35600832
37	0xbe8017d3	-0.25018176
38	0xbed4a003	-0.4152833
39	0xbee2f9f3	-0.4433132
40	0x3e2d7363	0.16938548
41	0x3eaa8fff	0.33312985
42	0xbf4fbc85	-0.8114703
43	0xbf21e525	-0.6324027
44	0xbe11ec09	-0.14250197
45	0xbe3ee45c	-0.186418
46	0x3e61da3a	0.22055903
47	0x3e8642d9	0.26222876
48	0xbd8c1fae	-0.0684198
49	0xbee561ae	-0.44801086
50	0xbf2c87be	-0.67394626
51	0xbdb6ead3	-0.08931508
52	0xbf8399bd	-1.0281292
53	0xbf4959c5	-0.786526
54	0xbe3a323a	-0.18183222
55	0xbed7066d	-0.4199709
56	0xbf10f95f	-0.5663051
57	0x3c993361	0.018701257
58	0x3ec562dc	0.38551986
59	0x3e5125f2	0.20424631
60	0xbdeaff85	-0.11474518
61	0x3f891584	1.0709691
62	0x3f58b29b	0.8464753
63	0xbe23248a	-0.15931907
64	0x3eaa5b7c	0.33272922
65	0x3edcab34	0.43099368
66	0x3cb0330d	0.021508718
67	0xbf3b16b1	-0.730815
68	0xbe9ba009	-0.30395535
69	0x3f498e53	0.78732795
70	0xbf1a26c9	-0.6021543
71	0x3f8baa07	1.0911263
72	0x3ed0d64b	0.40788493
73	0x3eca47c0	0.39507866
74	0x3ddc08f0	0.10743892
75	0x3eb134fc	0.34610736
76	0x3ea4c375	0.32180372
77	0xbef05754	-0.46941626
78	0x3eff9106	0.49915332
79	0x3f353a2b	0.7079188
80	0xbf47f8f3	-0.7811424
81	0xbe86f26e	-0.26356834
82	0xbf260fec	-0.64868045
83	0xbeb3dcee	-0.35129493
84	0xbe3ad869	-0.18246616
85	0x3e954292	0.29152352
86	0x3ecf75c4	0.40519536
87	0xbf1e50a5	-0.61841804
88	0x39360dd4	0.00017362024
89	0x3f29c1f5	0.6631158
90	0xbe99bbd9	-0.3002613
91	0x3d4c9918	0.04995069
92	0x3edbf09b	0.42957005
93	0xbeedf813	-0.46478328
94	0xbe30a1b4	-0.17249185
95	0x3efa0f80	0.4883995
96	0xbf0d148f	-0.55109495
97	0xbf0c6dfa	-0.5485531
98	0xbf37c068	-0.71777964
99	0xbe9c574d	-0.30535355
100	0xbdbefce0	-0.09325576
101	0x3e1213d7	0.14265381
102	0xbe1d0e25	-0.15337427
103	0xbe45187e	-0.19247624
104	0xbdc64056	-0.0968024
105	0x3f309be1	0.6898785
106	0x3f5c5c81	0.8607865
107	0x3f64ba2d	0.8934658
108	0x3d73498d	0.059396315
109	0xbf0f5fe1	-0.56005675
110	0xbf606362	-0.87651646
111	0x3e0089da	0.12552586
112	0x3f05c8ab	0.5225932
113	0x3ece74f5	0.40323606
114	0xbd2ee079	-0.042694543
115	0xbe512785	-0.20425232
116	0xbdbad2e8	-0.091222584
117	0xbe20a6d8	-0.15688646
118	0xbeac5b48	-0.33663392
119	0x3f326e9f	0.69700044
120	0x3ebe9274	0.3722111
121	0x3f2250ed	0.6340473
122	0x3ef5d861	0.48016647
123	0xbf000bfd	-0.5001829
124	0x3e8d5e5e	0.2761106
125	0x3e5ffdd4	0.21874171
126	0x3f191666	0.597998
127	0x3e8af306	0.27138537
128	0xbef5a629	-0.47978333
129	0x3ebc2ed4	0.36754477
130	0x3f131ef9	0.57469136
131	0x3d3b8a5a	0.04578624
132	0x3f2a0383	0.6641161
133	0x3f093b0a	0.5360571
134	0xbddd73d5	-0.10813109
135	0xbe67844f	-0.22609065
136	0x3e0770db	0.13226645
137	0xbe055d61	-0.13023902
138	0xbead9cb4	-0.33908617
139	0xbe8dcac8	-0.27693772
140	0xbe3719f1	-0.1788099
141	0xbf1bde26	-0.60885847
142	0xbf21e5f0	-0.6324148
143	0xbf381380	-0.71904755

batch_normalization_5/Kernel f4 [32, 1, 1, 1]
0	0x402380eb	2.5547435
1	0x3f3082b3	0.6894943
2	0x3f72aa47	0.9479107
3	0x3f420f85	0.7580493
4	0x3f2f3396	0.6843809
5	0x3f3b108c	0.73072124
6	0x3f161fdc	0.58642364
7	0x3f18ce8a	0.59690154
8	0x405ac3c6	3.418199
9	0x3faacf14	1.3344445
10	0x3fd86946	1.6907127
11	0x4006458c	2.0979948
12	0x3f91bccb	1.138574
13	0x403e9340	2.9777374
14	0x3f5341d6	0.8252233
15	0x402907f7	2.6411111
16	0x407773eb	3.86645
17	0x40c9b394	6.303171
18	0x408ea559	4.457684
19	0x40a43087	5.1309237
20	0x40eb848d	7.3599305
21	0x40601ecd	3.50188
22	0x4094016c	4.6251736
23	0x40be4727	5.9461856
24	0x40c9bbe1	6.3041844
25	0x409d9963	4.924974
26	0x40364e72	2.848538
27	0x4044e779	3.076628
28	0x4033f9b1	2.812115
29	0x40bae782	5.84076
30	0x404fbc3e	3.2458644
31	0x40e44b71	7.134209

depthwise_conv2d_4/Bias f4 [16]
0	0x00000000	0.0
1	0x00000000	0.0
2	0x00000000	0.0
3	0x00000000	0.0
4	0x00000000	0.0
5	0x00000000	0.0
6	0x00000000	0.0
7	0x00000000	0.0
8	0x00000000	0.0
9	0x00000000	0.0
10	0x00000000	0.0
11	0x00000000	0.0
12	0x00000000	0.0
13	0x00000000	0.0
14	0x00000000	0.0
15	0x00000000	0.0

conv2d_4/Kernel f4 [32, 16, 1, 1]
0	0x3ede8ccb	0.43466792
1	0x3ea59fdc	0.32348526
2	0x3ed609de	0.41804403
3	0xbe42e50a	-0.19032684
4	0x3cd44545	0.025911937
5	0x3cdd62d3	0.027024662
6	0x3dcbcdd3	0.09951367
7	0x3e6fdb87	0.23423587
8	0xbdbdb546	-0.09263091
9	0xbcb0c91f	-0.021580277
10	0xbedafc3c	-0.42770565
11	0xbe14eed2	-0.14544228
12	0xbd81c9d4	-0.06337324
13	0xbe63dce5	-0.22252233
14	0xbe779dab	-0.2418124
15	0x3e2d1ac9	0.16904749
16	0x3de5e639	0.11225552
17	0x3e94809a	0.29004365
18	0xbea73273	-0.32655677
19	0x3dca2253	0.09869828
20	0xbd31de09	-0.04342464
21	0xbe8ca7ab	-0.2747167
22	0xbf03bfeb	-0.5146472
23	0x3e10155d	0.1407065
24	0x3e6a4f22	0.2288175
25	0x3e81643e	0.2527179
26	0xbd79363b	-0.060842734
27	0x3f050e13	0.519746
28	0x3e2bb737	0.1676911
29	0x3ec2c28e	0.38039058
30	0xbed200fd	-0.4101638
31	0x3e1348e9	0.14383282
32	0xbf0b893b	-0.5450627
33	0xbc976ce4	-0.01848454
34	0x3d2d6802	0.042335518
35	0xbe26b18b	-0.16278665
36	0x3e2f75db	0.17134802
37	0x3e9d5c15	0.30734316
38	0xbf0731e3	-0.52810496
39	0x3ed01f3d	0.40648833
40	0xbd97453f	-0.073862545
41	0xbdfcf481	-0.12351323
42	0x3f08c11f	0.5341968
43	0xbf48ab4c	-0.7838638
44	0xbe61e491	-0.22059847
45	0xbede517e	-0.4342155
46	0xbc93a1d8	-0.018021509
47	0xbf2b2458	-0.6685233
48	0x3ef8da64	0.4860412
49	0xbe92ae25	-0.28648487
50	0x3ec2b2c9	0.38027027
51	0x3e318200	0.17334747
52	0xbc7997a8	-0.015233912
53	0x3e8b8f1a	0.27257615
54	0xbe7868f6	-0.2425879
55	0x3e416439	0.18885888
56	0xbe6d4ea9	-0.23174538
57	0x3d98ce01	0.07461167
58	0xbeb273cb	-0.34853968
59	0x3dcd0c10	0.10012066
60	0xbdd30dbd	-0.10305355
61	0xbebeb3a7	-0.3724644
62	0xbefe81e3	-0.4970847
63	0xbde2fc7f	-0.11083316
64	0x3ea1ce1f	0.3160257
65	0xbe8dde7f	-0.27708814
66	0x3e38a5dc	0.1803202
67	0x3d0e42bd	0.034731615
68	0xbecb328b	-0.39687
69	0xbe9153ab	-0.28384146
70	0x3daf9203	0.085727714
71	0x3b7c813b	0.0038529176
72	0x3e2a1f0a	0.16613403
73	0xbe674e41	-0.22588445
74	0x3c1bedab	0.009517114
75	0xbf038b5d	-0.51384526
76	0xbe6622c0	-0.22474194
77	0xbe7423a4	-0.23841721
78	0x3e228bb9	0.15873612
79	0x3e9aebab	0.30257925
80	0xbeaf4ce2	-0.34238344
81	0x3e80695b	0.2508038
82	0xbca39c72	-0.01997206
83	0xbe31a5ff	-0.17348479
84	0xbe9045c8	-0.2817824
85	0xbcc5be51	-0.024138601
86	0xbee70e36	-0.4512803
87	0x3f3e81ff	0.7441711
88	0xbe332d9f	-0.17497872
89	0xbdbe956f	-0.09305846
90	0x3f09add0	0.5378084
91	0xbddd9bf2	-0.1082076
92	0x3e4bc005	0.19897468
93	0xbf215604	-0.63021874
94	0x3dd9a016	0.10626237
95	0x3c66b7fd	0.014081952
96	0x3d8a99ac	0.06767592
97	0xbd3e2828	-0.046425015
98	0x3f0263f2	0.50933754
99	0x3eab3cf4	0.3344494
100	0x3eb0d99d	0.34541026
101	0x3e6ca1d6	0.2310861
102	0xbe0683b4	-0.13136178
103	0xbef3e7f1	-0.47637895
104	0x3e9b1d50	0.302958
105	0xbeb26c57	-0.34848282
106	0x3eed480a	0.46344024
107	0x3e9f28c3	0.31085786
108	0x3f181067	0.5940003
109	0x3e136e3e	0.14397523
110	0xbedb113f	-0.42786595
111	0x3f1322b5	0.57474834
112	0x3ead3a72	0.33833653
113	0x3e012085	0.12610061
114	0x3e4c87c4	0.19973665
115	0xbed4e458	-0.41580462
116	0x3ec53654	0.38518012
117	0x3e7f161e	0.24910781
118	0xbf025d87	-0.5092396
119	0x3e8ae96e	0.27131218
120	0x3eef5921	0.46747687
121	0x3e10ee2b	0.14153354
122	0x3e0678b8	0.13131988
123	0x3ee01610	0.43766832
124	0xbe98de2f	-0.29857013
125	0x3d87e64b	0.06635722
126	0xbd828b1c	-0.06374189
127	0xbe3a7d9d	-0.1821198
128	0xbe766238	-0.24060905
129	0x3bceff95	0.006317089
130	0x3ed2ed27	0.41196558
131	0x3e76f482	0.2411671
132	0xbdd52a62	-0.104084745
133	0x3da69aef	0.0813502
134	0xbd8d3173	-0.06894197
135	0xbe849a0a	-0.25898772
136	0xbcb0fa3b	-0.021603694
137	0x3e885956	0.26630658
138	0xbeac550d	-0.3365864
139	0x3ce27125	0.027641842
140	0xbe4c7c24	-0.19969231
141	0xbeeee724	-0.4666072
142	0x3e76e93a	0.24112406
143	0xbd9a5959	-0.07536573
144	0x3d7e0c4d	0.06202345
145	0x3e45a278	0.19300258
146	0x3d9e09be	0.07716702
147	0x3e99b922	0.30024058
148	0x3f067aae	0.52530944
149	0x3d1e1cdf	0.038601752
150	0xbe8a9ab0	-0.27071142
151	0xbdbd196b	-0.09233364
152	0x3ec1f298	0.37880397
153	0x3e113ce6	0.14183387
154	0x3ef32769	0.47491005
155	0xbe51db5b	-0.20493834
156	0x3e2e5854	0.17025882
157	0xbe7f3160	-0.24921179
158	0xbcb8a2f6	-0.022538643
159	0xbea2cde1	-0.31797698
160	0x3c8d0ecc	0.01721897
161	0xbd7287a8	-0.059211403
162	0xbe9c3c09	-0.30514553
163	0x3cfee4a6	0.031114887
164	0x3e49266e	0.19643566
165	0x3db6fcea	0.08934958
166	0xbd0a5a23	-0.033777367
167	0xbe24433d	-0.16041274
168	0x3e63ce79	0.22246732
169	0x3ec2191e	0.37909788
170	0xbe163361	-0.14668037
171	0xbdc6f29c	-0.09714243
172	0xbdda77da	-0.10667391
173	0xbd424d36	-0.047436915
174	0xbe0c033b	-0.13673107
175	0xbf35e0e7	-0.710463
176	0x3d421b5b	0.04738937
177	0xbe0097cf	-0.1255791
178	0xbeb0d02a	-0.34533817
179	0x3db732c2	0.08945228
180	0x3e04a666	0.12954101
181	0x3e91c49e	0.2847032
182	0xbe60ccd1	-0.21953131
183	0x3e59a64a	0.2125484
184	0xbe0208b4	-0.12698632
185	0x3e3fbf3b	0.18725292
186	0xbec05d19	-0.37571028
187	0xbe10ecb2	-0.14152792
188	0xbe0d5cef	-0.13804983
189	0xbf17c16a	-0.592795
190	0x3e6f9894	0.23398048
191	0xbe227805	-0.15866096
192	0x3d0f24a4	0.034947053
193	0x3cff195a	0.031140018
194	0xbe669b75	-0.2252024
195	0x3ea3f6f9	0.32024363
196	0xbe446307	-0.19178401
197	0x3d7a2382	0.06106902
198	0x3e1baf89	0.1520368
199	0x3e815617	0.25260994
200	0x3e994354	0.2993418
201	0xbc9baa8d	-0.019002223
202	0x3e57b291	0.21064211
203	0x3eca0263	0.39454946
204	0x3eb85be1	0.36007598
205	0xbe12092a	-0.14261308
206	0xbe5e0b4f	-0.21684001
207	0x3eb8f89c	0.36127174
208	0xbd4f313d	-0.050584067
209	0x3e85085d	0.25982943
210	0xbdc0476b	-0.09388622
211	0xbb90c40d	-0.0044179023
212	0x3d1b6633	0.03793926
213	0x3d66b483	0.056324493
214	0xbeb484ef	-0.3525767
215	0x3e988b4d	0.29793778
216	0xbdb6c379	-0.08924002
217	0x3ec7bce0	0.39011288
218	0xbed75ff7	-0.42065403
219	0x3dabd716	0.08390634
220	0xbdb7252e	-0.08942638
221	0xbeaf1571	-0.34196046
222	0x3e9059dd	0.2819356
223	0xbdefe121	-0.11712862
224	0xbde2f080	-0.11081028
225	0x3d7e5738	0.062094897
226	0xbee8f6f4	-0.4550091
227	0xbe7446e5	-0.23855169
228	0x3df97d6b	0.12182125
229	0xbe62d20c	-0.22150439
230	0xbf206aac	-0.6266277
231	0xbe8c2da3	-0.27378568
232	0x3ed5c084	0.4174844
233	0x3ecec051	0.403811
234	0x3f06070a	0.5235449
235	0x3e678e87	0.22612964
236	0xbe12d06a	-0.14337316
237	0xbe947706	-0.28997058
238	0xbe94d4fe	-0.2906875
239	0x3e8214de	0.25406545
240	0xbe0212fd	-0.12702556
241	0x3ec7e7e9	0.3904412
242	0x3bf77129	0.0075513315
243	0xbcb2cb82	-0.021825556
244	0xbc06a5ec	-0.00821827
245	0xbeaef82f	-0.34173724
246	0xbe646ba7	-0.22306691
247	0x3db4f708	0.0883618
248	0xbe9168c5	-0.28400245
249	0x3ebe4d80	0.37168503
250	0xbdf8d3d2	-0.121497765
251	0x3e4fffd2	0.20312431
252	0x3dd88d7c	0.10573861
253	0x3de19f71	0.11016739
254	0x3d6a6002	0.057220466
255	0x3deeb5e1	0.116557844

conv2d_7/Kernel f4 [32, 64, 2, 2]
0	0x3df25491	0.11832536
1	0x3e9400c6	0.2890684
2	0x3e4f8ea7	0.20269261
3	0x3e4fe964	0.20303875
4	0x3c96ca70	0.018407077
5	0x3da96688	0.082715094
6	0x3e1539ee	0.1457288
7	0x3e19b399	0.15009917
8	0x3d419da5	0.047269482
9	0x3e1da533	0.1539505
10	0xbc8d45a8	-0.017245129
11	0x3dd67ead	0.1047338
12	0x3d3c0839	0.04590628
13	0xbcde541f	-0.027139721
14	0x3d9858d3	0.07438817
15	0xbe50ca85	-0.20389755
16	0x3c120a18	0.008913539
17	0x3c1cc707	0.009568936
18	0x3ca57797	0.020198626
19	0xbd3b3507	-0.045704868
20	0xbd8d9077	-0.0691232
21	0x3cef7a54	0.029233135
22	0xbd452007	-0.048126247
23	0x3dffb401	0.12485505
24	0xbe34d3a3	-0.17658858
25	0xbe7110dd	-0.23541589
26	0x3d955493	0.07291522
27	0x3d681bb0	0.05666703
28	0x3d48c2c4	0.049013868
29	0xbd0e69e2	-0.034768946
30	0x3d77242d	0.060337234
31	0x3e159511	0.14607646
32	0xbc6beea7	-0.014400161
33	0x3e4bd3c5	0.19905002
34	0xbd750f3f	-0.059828993
35	0xbd9a61d9	-0.07538194
36	0xbe67cff6	-0.22637925
37	0xbc99b5b2	-0.018763397
38	0x3e37d54d	0.17952462
39	0x3cedb559	0.029017137
40	0xbe1af3ba	-0.15132037
41	0x3e8644ef	0.26224467
42	0x3e297327	0.16547833
43	0x3cafc3eb	0.021455726
44	0xbdb4538d	-0.088049985
45	0xbe0b221e	-0.13587233
46	0xbe2a71ff	-0.16645049
47	0x3d636a3a	0.055521227
48	0xbe3e2a14	-0.18570739
49	0xbc24dfe9	-0.01006315
50	0xbd8492a4	-0.06473282
51	0x3d29465d	0.04132687
52	0x3e6deda5	0.23235185
53	0x3d857872	0.06517114
54	0x3e03b88b	0.12863366
55	0xbe317d30	-0.17332911
56	0xbd9e57cd	-0.077315904
57	0xbc8d7a57	-0.01727025
58	0x3d7e4745	0.062079687
59	0x3d9eb280	0.0774889
60	0x3e1f4ee3	0.15557437
61	0x3e77881d	0.24173017
62	0x3e5aaf1c	0.21355861
63	0x3dde68b2	0.10859813
64	0x3ab05960	0.001345437
65	0xbdd71858	-0.1050269
66	0xbe9ea74f	-0.3098702
67	0x3d41b0de	0.047287814
68	0x3e162abd	0.14664741
69	0xbd928df2	-0.0715598
70	0x3ddc55b9	0.10758538
71	0xbdb94abe	-0.09047459
72	0xbc8d433b	-0.017243972
73	0xbd66712e	-0.05626028
74	0xbd12606f	-0.035736497
75	0xbd06570e	-0.032797866
76	0x3e22f4b4	0.1591366
77	0x3d6216b7	0.055197444
78	0x3e979715	0.29607454
79	0xbdd214c6	-0.102578685
80	0xbe0b6b14	-0.13615066
81	0x3dd21d2b	0.102594696
82	0xbd8bd853	-0.0682837
83	0x3d43e04c	0.047821328
84	0xbe8f3edd	-0.27977648
85	0xbd01237a	-0.031527974
86	0xbdb08508	-0.08619124
87	0x3dd37c04	0.103263885
88	0x3c40486e	0.011736019
89	0x3de52813	0.11189284
90	0x3deb8bea	0.11501296
91	0x3d6dffe6	0.058105372
92	0x3c96a65c	0.018389873
93	0x3c276cc5	0.010218804
94	0x3d530bfd	0.051525105
95	0x3e588ae0	0.21146727
96	0x3c29d5da	0.010365928
97	0xbc59d090	-0.013294354
98	0x3d69bafc	0.057063088
99	0xbc7d957b	-0.015477533
100	0x3d2602e8	0.040530115
101	0x3cb2a232	0.021805856
102	0x3e6bc90b	0.2302591
103	0x3bbfbdc1	0.005851478
104	0x3d943532	0.07236709
105	0x3e560a62	0.20902398
106	0xbdde0792	-0.10841288
107	0x3e63aae1	0.22233154
108	0xbdfbacf7	-0.1228885
109	0xbdb85f8a	-0.09002598
110	0xbe44ae32	-0.19207075
111	0x3e45e3eb	0.19325225
112	0xbe067a0d	-0.13132496
113	0xbe43436b	-0.19068687
114	0x3a05518d	0.00050856994
115	0xbd67610b	-0.05648903
116	0x3de3a763	0.11115911
117	0xbcb792e8	-0.022408918
118	0x3dd2adc1	0.10287047
119	0x3b34ad1c	0.0027569002
120	0xbd6b8f76	-0.057509862
121	0x3e07b020	0.1325078
122	0x3dad6044	0.08465627
123	0x3e9950f1	0.29944566
124	0x3d8cf642	0.068829075
125	0x3cd84d5f	0.02640408
126	0x3d990e41	0.07473422
127	0x3c8e1a6f	0.017346589
128	0x3df9f83b	0.12205549
129	0x3e3779bf	0.17917536
130	0x3de6d6b7	0.11271422
131	0x3e68f718	0.22750509
132	0xbd88c582	-0.066782966
133	0xbcbf8310	-0.023377925
134	0x3da54e7f	0.080716126
135	0x3e1698d0	0.14706731
136	0xbe29f28f	-0.16596435
137	0x3dde991f	0.10869049
138	0x3d573307	0.052538898
139	0x3e8306d1	0.25591138
140	0x3d50aad0	0.05094415
141	0x3ced014e	0.028931286
142	0xbda854e4	-0.082193166
143	0x3dd5208b	0.10406598
144	0xbe6d4436	-0.23170552
145	0xbe7d61ae	-0.24744293
146	0xbd90885e	-0.0705726
147	0xbe0224c3	-0.12709336
148	0xbe966498	-0.29373622
149	0xbe9b5afb	-0.3034285
150	0xbd98afc5	-0.074554004
151	0xbcc9fcb0	-0.024656624
152	0xbd434ab6	-0.04767867
153	0xbe0aa8e9	-0.13540997
154	0xbe72d48c	-0.23713893
155	0xbe4d4f4f	-0.20049785
156	0x3d944fae	0.0724176
157	0xbda9a875	-0.08284084
158	0x3dc91c5d	0.09819863
159	0xbc835920	-0.016033709
160	0x3df28ceb	0.11843284
161	0x3d1258c3	0.03572918
162	0x3dbe96f4	0.09306136
163	0xbd6f183f	-0.058372732
164	0xbe6c7038	-0.23089683
165	0xbe0cda9f	-0.13755272
166	0xbd12eea7	-0.035872128
167	0xbc9107d8	-0.017703936
168	0xbdf6ab46	-0.120443866
169	0xbea389e4	-0.3194114
170	0xbd49da86	-0.049280666
171	0x3eda1e83	0.42601404
172	0x3e8d7b3d	0.27633086
173	0x3e32f9d2	0.17478111
174	0xbd115ef2	-0.035490938
175	0xbe14c7be	-0.1452932
176	0x3e878468	0.26468205
177	0x3d42a55e	0.047520988
178	0xbc40cc9c	-0.011767533
179	0xbda17fa8	-0.078856766
180	0xbe048c75	-0.12944205
181	0xbea28f5d	-0.31750003
182	0xbe90c40b	-0.2827457
183	0x3d9c04f7	0.076181345
184	0x3e95be28	0.2924664
185	0xbe14fdae	-0.14549896
186	0xbcd2f996	-0.025753777
187	0xbeae9c66	-0.34103698
188	0x3de9045f	0.11377787
189	0xbe498a9c	-0.19681782
190	0xbe8153e0	-0.25259304
191	0xbe2f9beb	-0.17149322
192	0xbd4c84d4	-0.049931362
193	0x3d9ad5c5	0.075603046
194	0xbe5235fc	-0.20528406
195	0xbd000fef	-0.031265195
196	0x3dfd1e07	0.12359243
197	0xbf0e2ea4	-0.5553992
198	0xbe1d980e	-0.15390036
199	0xbd7d3e5e	-0.061827056
200	0x3d89afa6	0.067229554
201	0x3e8c1521	0.2735987
202	0x3e5a3926	0.21310863
203	0x3ed1cd46	0.40976924
204	0x3e3d7255	0.18500645
205	0x3e6c5ec8	0.23083031
206	0x3e6fdd0d	0.23424168
207	0x3e00414d	0.1252491
208	0x3d94927c	0.07254502
209	0xbddda85f	-0.1082313
210	0xbe583290	-0.21113038
211	0xbeb1a4fb	-0.34696183
212	0xbd8cae20	-0.06869149
213	0x3e578330	0.21046138
214	0xbdd797b3	-0.10526981
215	0x3e58a3cb	0.21156232
216	0x3d8bf5d8	0.06834
217	0xbda4836a	-0.08032878
218	0xbdba1dbf	-0.09087705
219	0xbd546e5b	-0.051863056
220	0xbdfa2245	-0.12213568
221	0xbe271327	-0.163159
222	0xbda3db69	-0.080008335
223	0xbe83e858	-0.25763202
224	0x3dae0622	0.084972635
225	0xbe074f28	-0.1321379
226	0x3dad078f	0.08448707
227	0xbe97051c	-0.29496086
228	0x3e9335c1	0.28751948
229	0x3db323ae	0.0874704
230	0x3e11728b	0.14203851
231	0xbd9db12b	-0.07699808
232	0xbdfdbe13	-0.123897694
233	0xbe351ceb	-0.17686813
234	0xbe615f30	-0.22008967
235	0xbe1ac52f	-0.15114282
236	0xbe009330	-0.12556148
237	0xbd208ae6	-0.039194964
238	0xbec3bff8	-0.38232398
239	0xbe3d9885	-0.18515213
240	0x3ecbeea3	0.39830503
241	0x3e9dbb31	0.30806878
242	0xbc998b1e	-0.018743094
243	0xbddf51fc	-0.10904309
244	0x3e19b179	0.15009107
245	0xbe3b69d6	-0.18302092
246	0x3e71e452	0.23622254
247	0xbe81f8c2	-0.253851
248	0xbe25bfa3	-0.16186385
249	0xbe2ad27c	-0.16681856
250	0x3b66f1b8	0.003523929
251	0x3c1db719	0.009626173
252	0x3de2f8ec	0.11082634
253	0x3e863f39	0.2622011
254	0x3e6adfdb	0.22936957
255	0x3e050769	0.12991108

batch_normalization_12/Bias f4 [8]
0	0xbed4fa42	-0.41597182
1	0xc03e9893	-2.9780624
2	0xbfdd4f92	-1.7289908
3	0xbf843e90	-1.0331593
4	0xbfc9b0ea	-1.5757115
5	0xbfb6d03f	-1.4282302
6	0xc02dfa93	-2.7184188
7	0xc0235a33	-2.5523803

batch_normalization_9/Bias f4 [64]
0	0xbf693815	-0.911012
1	0xbf74b95a	-0.95595324
2	0xbf6b24df	-0.91853136
3	0xbf846448	-1.0343103
4	0xbf8a7268	-1.0816164
5	0xbfb5bf7b	-1.419906
6	0xbf50ac65	-0.81513053
7	0xbf3bcda7	-0.73360676
8	0xbf36929c	-0.7131746
9	0xbec87874	-0.39154398
10	0xbf3b3235	-0.73123485
11	0xbf9467e9	-1.1594211
12	0xbf35e676	-0.7105478
13	0xbf0f2b69	-0.55925614
14	0xbf95814e	-1.1680086
15	0xbf25358d	-0.64534837
16	0xbfaed10a	-1.3657544
17	0xbfd718ee	-1.6804483
18	0xbea3b8be	-0.31976885
19	0xbedd99a8	-0.43281293
20	0xbf911087	-1.1333169
21	0xbed38a49	-0.4131644
22	0xbf6d0597	-0.92586654
23	0xbf93e637	-1.1554631
24	0xbf0937bb	-0.5360066
25	0xbf44b5e3	-0.7684004
26	0xbfc5a79d	-1.5441777
27	0xbf3eab92	-0.74480546
28	0xbf713ccd	-0.942334
29	0xbfa090fa	-1.2544243
30	0xbf86fcad	-1.054586
31	0xbf862993	-1.0481437
32	0xbf9fd71a	-1.2487519
33	0xbfc7c100	-1.5605774
34	0xbf5401a6	-0.82815015
35	0xbf49e30d	-0.78862077
36	0xbf85829c	-1.0430484
37	0xbfb675f7	-1.425475
38	0xbf980e38	-1.1879339
39	0xbf065cf1	-0.5248557
40	0xbfb614bd	-1.4225079
41	0xbf9bd244	-1.2173543
42	0xbf89ec64	-1.0775266
43	0xbfddc7b2	-1.7326567
44	0xbf906deb	-1.1283544
45	0xbf93619f	-1.1514167
46	0xbf66f786	-0.9022144
47	0xbf83ced0	-1.0297489
48	0xbf6f311d	-0.93434316
49	0xbf98635b	-1.1905321
50	0xbf9c7248	-1.2222376
51	0xbfa952f4	-1.322844
52	0xbf4ac9d5	-0.7921422
53	0xbf95af18	-1.1694059
54	0xbfa6eaf0	-1.3040447
55	0xbf8efcf8	-1.117095
56	0xbf95c996	-1.1702144
57	0xbfa7d864	-1.3112912
58	0xbf947014	-1.1596704
59	0xbf9c7b40	-1.2225113
60	0xbfbb39c7	-1.4627007
61	0xbfb59c70	-1.4188366
62	0xbf901936	-1.1257694
63	0xbea6059b	-0.32426152

batch_normalization_5/Bias f4 [32]
0	0xbf4c413b	-0.79787034
1	0xbec0a3c0	-0.3762493
2	0xbf6c677a	-0.9234539
3	0xbf27f74a	-0.6561171
4	0xbf29f59b	-0.6639039
5	0xbf6cbce7	-0.9247574
6	0xbf5f9add	-0.8734568
7	0xbeedf16b	-0.4647325
8	0xbf2a5199	-0.6653076
9	0xbed832db	-0.422263
10	0xbf0048ab	-0.5011088
11	0xbf5f4fec	-0.87231326
12	0xbf2c3fef	-0.67285055
13	0xbecbaf67	-0.3978226
14	0xbf0543de	-0.5205668
15	0xbf3ad20f	-0.72976774
16	0xbf1441fc	-0.57913184
17	0xbeef1184	-0.4669305
18	0xbebe41bb	-0.37159523
19	0xbf2d5b31	-0.6771727
20	0xbebfddda	-0.37473947
21	0xbef13812	-0.4711309
22	0xbf369c4d	-0.71332246
23	0xbf48385c	-0.78211
24	0xbf16036e	-0.58598983
25	0xbf6af3fc	-0.9177854
26	0xbec92954	-0.39289343
27	0xbf54dc2f	-0.83148474
28	0xbf0429ef	-0.51626486
29	0xbf3c3d98	-0.73531485
30	0xbf1807e0	-0.59387016
31	0xbf0493a8	-0.51787806

conv2d_8/Bias f4 [64]
0	0x00000000	0.0
1	0x00000000	0.0
2	0x00000000	0.0
3	0x00000000	0.0
4	0x00000000	0.0
5	0x00000000	0.0
6	0x00000000	0.0
7	0x00000000	0.0
8	0x00000000	0.0
9	0x00000000	0.0
10	0x00000000	0.0
11	0x00000000	0.0
12	0x00000000	0.0
13	0x00000000	0.0
14	0x00000000	0.0
15	0x00000000	0.0
16	0x00000000	0.0
17	0x00000000	0.0
18	0x00000000	0.0
19	0x00000000	0.0
20	0x00000000	0.0
21	0x00000000	0.0
22	0x00000000	0.0
23	0x00000000	0.0
24	0x00000000	0.0
25	0x00000000	0.0
26	0x00000000	0.0
27	0x00000000	0.0
28	0x00000000	0.0
29	0x00000000	0.0
30	0x00000000	0.0
31	0x00000000	0.0
32	0x00000000	0.0
33	0x00000000	0.0
34	0x00000000	0.0
35	0x00000000	0.0
36	0x00000000	0.0
37	0x00000000	0.0
38	0x00000000	0.0
39	0x00000000	0.0
40	0x00000000	0.0
41	0x00000000	0.0
42	0x00000000	0.0
43	0x00000000	0.0
44	0x00000000	0.0
45	0x00000000	0.0
46	0x00000000	0.0
47	0x00000000	0.0
48	0x00000000	0.0
49	0x00000000	0.0
50	0x00000000	0.0
51	0x00000000	0.0
52	0x00000000	0.0
53	0x00000000	0.0
54	0x00000000	0.0
55	0x00000000	0.0
56	0x00000000	0.0
57	0x00000000	0.0
58	0x00000000	0.0
59	0x00000000	0.0
60	0x00000000	0.0
61	0x00000000	0.0
62	0x00000000	0.0
63	0x00000000	0.0

batch_normalization/Kernel f4 [8, 1, 1, 1]
0	0x40fa0bfb	7.8139625
1	0x402e398a	2.722262
2	0x401652da	2.3488069
3	0x40952a5f	4.6614223
4	0x4014dc49	2.3259451
5	0x407f32a4	3.9874659
6	0x406d14cc	3.7043943
7	0x412a0cbe	10.628111
